

dataset2012-2017-full-text
len(train)16399
len(dev)2342
len(test)4685
Model: CNNClassifier(
  (embedding): Embedding(365144, 100)
  (convs): ModuleList(
    (0): Conv2d(1, 2, kernel_size=(3, 100), stride=(1, 1))
    (1): Conv2d(1, 2, kernel_size=(4, 100), stride=(1, 1))
    (2): Conv2d(1, 2, kernel_size=(5, 100), stride=(1, 1))
  )
  (dropout): Dropout(p=0.5)
  (fc): Linear(in_features=6, out_features=8, bias=True)
)
Learning rate: 0.001
Epochs: 25
Epoch [1/25], Steps [100/20500], Loss: 1.6839
Epoch [1/25], Steps [200/20500], Loss: 2.1539
Epoch [1/25], Steps [300/20500], Loss: 1.5029
Epoch [1/25], Steps [400/20500], Loss: 1.7651
Epoch [1/25], Steps [500/20500], Loss: 1.5482
Dev: 
Evaluation - loss: 1.567440  acc: 40.9479%(959/2342) 

Epoch [1/25], Steps [600/20500], Loss: 1.7280
…
Epoch [25/25], Steps [20100/20500], Loss: 1.1316
Epoch [25/25], Steps [20200/20500], Loss: 1.2815
Epoch [25/25], Steps [20300/20500], Loss: 0.8910
Epoch [25/25], Steps [20400/20500], Loss: 0.8955
Epoch [25/25], Steps [20500/20500], Loss: 0.7733
Dev: 
Evaluation - loss: 1.558606  acc: 56.5756%(1325/2342) 

Test: 
Evaluation - loss: 1.615236  acc: 57.0971%(2675/4685) 


dataset2012-2017-full-text
len(train)16399
len(dev)2342
len(test)4685
Model: CNN

dataset2012-2017-full-text
len(train)16399
len(dev)2342
len(test)4685
Model: CNN
batch_size: 20
Embeddings: glove-6B-300
Model: CNNClassifier(
  (embedding): Embedding(365144, 300)
  (convs): ModuleList(
    (0): Conv2d(1, 2, kernel_size=(3, 300), stride=(1, 1))
    (1): Conv2d(1, 2, kernel_size=(4, 300), stride=(1, 1))
    (2): Conv2d(1, 2, kernel_size=(5, 300), stride=(1, 1))
  )
  (dropout): Dropout(p=0.5)
  (fc): Linear(in_features=6, out_features=8, bias=True)
)
Learning rate: 0.001
Epochs: 25
Epoch [1/25], Steps [100/20500], Loss: 1.7582
Epoch [1/25], Steps [200/20500], Loss: 1.6139
Epoch [1/25], Steps [300/20500], Loss: 1.7725
Epoch [1/25], Steps [400/20500], Loss: 1.4390
Epoch [1/25], Steps [500/20500], Loss: 1.4736
Dev: 
Evaluation - loss: 1.463507  acc: 50.2562%(1177/2342) 

Epoch [1/25], Steps [600/20500], Loss: 1.3770
…
Epoch [25/25], Steps [20000/20500], Loss: 0.8858
Dev: 
Evaluation - loss: 1.691207  acc: 59.3510%(1390/2342) 

Epoch [25/25], Steps [20100/20500], Loss: 1.3907
Epoch [25/25], Steps [20200/20500], Loss: 1.3753
Epoch [25/25], Steps [20300/20500], Loss: 0.6861
Epoch [25/25], Steps [20400/20500], Loss: 0.9069
Epoch [25/25], Steps [20500/20500], Loss: 0.9991
Dev: 
Evaluation - loss: 1.687449  acc: 60.0342%(1406/2342) 

Test: 
Evaluation - loss: 1.621196  acc: 59.5304%(2789/4685) 


dataset2012-2012-short-text
len(train)3138
len(dev)448
len(test)896
Model: CNN
batch_size: 20
Embeddings: glove-6B-300
Model: CNNClassifier(
  (embedding): Embedding(18830, 300)
  (convs): ModuleList(
    (0): Conv2d(1, 2, kernel_size=(3, 300), stride=(1, 1))
    (1): Conv2d(1, 2, kernel_size=(4, 300), stride=(1, 1))
    (2): Conv2d(1, 2, kernel_size=(5, 300), stride=(1, 1))
  )
  (dropout): Dropout(p=0.5)
  (fc): Linear(in_features=6, out_features=8, bias=True)
)
Learning rate: 0.001
Epochs: 1

dataset2012-2012-short-text
len(train)3138
len(dev)448
len(test)896
Model: CNN
batch_size: 20
Embeddings: glove-6B-300
Model: CNNClassifier(
  (embedding): Embedding(18830, 300)
  (convs): ModuleList(
    (0): Conv2d(1, 2, kernel_size=(3, 300), stride=(1, 1))
    (1): Conv2d(1, 2, kernel_size=(4, 300), stride=(1, 1))
    (2): Conv2d(1, 2, kernel_size=(5, 300), stride=(1, 1))
  )
  (dropout): Dropout(p=0.5)
  (fc): Linear(in_features=6, out_features=8, bias=True)
)
Learning rate: 0.001
Epochs: 1
Epoch [1/1], Steps [100/157], Loss: 2.0137

dataset2012-2012-short-text
len(train)3138
len(dev)448
len(test)896
Model: CNN
batch_size: 20
Embeddings: glove-6B-300
Model: CNNClassifier(
  (embedding): Embedding(18830, 300)
  (convs): ModuleList(
    (0): Conv2d(1, 2, kernel_size=(3, 300), stride=(1, 1))
    (1): Conv2d(1, 2, kernel_size=(4, 300), stride=(1, 1))
    (2): Conv2d(1, 2, kernel_size=(5, 300), stride=(1, 1))
  )
  (dropout): Dropout(p=0.5)
  (fc): Linear(in_features=6, out_features=8, bias=True)
)
Learning rate: 0.001
Epochs: 1

dataset2012-2012-short-text
len(train)3138
len(dev)448
len(test)896
Model: CNN
batch_size: 20
Embeddings: glove-6B-300
Model: CNNClassifier(
  (embedding): Embedding(18830, 300)
  (convs): ModuleList(
    (0): Conv2d(1, 2, kernel_size=(3, 300), stride=(1, 1))
    (1): Conv2d(1, 2, kernel_size=(4, 300), stride=(1, 1))
    (2): Conv2d(1, 2, kernel_size=(5, 300), stride=(1, 1))
  )
  (dropout): Dropout(p=0.5)
  (fc): Linear(in_features=6, out_features=8, bias=True)
)
Learning rate: 0.001
Epochs: 1

dataset2012-2012-short-text
len(train)3138
len(dev)448
len(test)896
Model: CNN
batch_size: 20
Embeddings: glove-6B-100
Model: CNNClassifier(
  (embedding): Embedding(18830, 100)
  (convs): ModuleList(
    (0): Conv2d(1, 2, kernel_size=(3, 100), stride=(1, 1))
    (1): Conv2d(1, 2, kernel_size=(4, 100), stride=(1, 1))
    (2): Conv2d(1, 2, kernel_size=(5, 100), stride=(1, 1))
  )
  (dropout): Dropout(p=0.5)
  (fc): Linear(in_features=6, out_features=8, bias=True)
)
Learning rate: 0.001
Epochs: 1
Epoch [1/1], Steps [100/157], Loss: 1.8200
Test: 
Evaluation - loss: 1.725670  acc: 28.1250%(252/896) 


dataset2012-2017-full-text
len(train)16399
len(dev)2342
len(test)4685
Model: CNN
Max length: 200
batch_size: 20
Embeddings: glove-6B-100
Model: CNNClassifier(
  (embedding): Embedding(365144, 100)
  (convs): ModuleList(
    (0): Conv2d(1, 2, kernel_size=(3, 100), stride=(1, 1))
    (1): Conv2d(1, 2, kernel_size=(4, 100), stride=(1, 1))
    (2): Conv2d(1, 2, kernel_size=(5, 100), stride=(1, 1))
  )
  (dropout): Dropout(p=0.5)
  (fc): Linear(in_features=6, out_features=8, bias=True)
)
Learning rate: 0.001
Epochs: 25
Epoch [1/25], Steps [100/20500], Loss: 1.9639
Epoch [1/25], Steps [200/20500], Loss: 1.8039
Epoch [1/25], Steps [300/20500], Loss: 1.7919
Epoch [1/25], Steps [400/20500], Loss: 1.6443
Epoch [1/25], Steps [500/20500], Loss: 1.8602
Dev: 
Evaluation - loss: 1.535181  acc: 48.3775%(1133/2342) 

Epoch [1/25], Steps [600/20500], Loss: 1.5032
…
