…
Dev: 
Evaluation - loss: 1.499438  acc: 77.4552%(1814/2342) 

Epoch [25/25], Steps [20100/20500], Loss: 1.2740
Epoch [25/25], Steps [20200/20500], Loss: 1.2740
Epoch [25/25], Steps [20300/20500], Loss: 1.3240
Epoch [25/25], Steps [20400/20500], Loss: 1.3740
Epoch [25/25], Steps [20500/20500], Loss: 1.2740
Dev: 
Evaluation - loss: 1.495249  acc: 78.0529%(1828/2342) 

Test: 
Evaluation - loss: 1.496109  acc: 77.8015%(3645/4685) 


dataset2012-2017-full-text
len(train)16399
len(dev)2342
len(test)4685
Model: RCNN
Max length: 400
batch_size: 20
Embeddings: glove-6B-100
Model: RCNN_Classifier(
  (embed): Embedding(365144, 100)
  (bi_lstm): LSTM(100, 128, num_layers=25, batch_first=True, bidirectional=True)
  (sm_fc): Linear(in_features=356, out_features=100, bias=True)
  (fc): Linear(in_features=100, out_features=8, bias=True)
)
Learning rate: 0.001
Epochs: 25
Epoch [1/25], Steps [100/20500], Loss: 1.9857
Epoch [1/25], Steps [200/20500], Loss: 1.7155
Epoch [1/25], Steps [300/20500], Loss: 1.9342
Epoch [1/25], Steps [400/20500], Loss: 1.5901
Epoch [1/25], Steps [500/20500], Loss: 1.6451

dataset2012-2017-full-text
len(train)16399
len(dev)2342
len(test)4685
Model: RCNN
Max length: 400
batch_size: 20
Embeddings: glove-6B-100
Model: RCNN_Classifier(
  (embed): Embedding(365144, 100)
  (bi_lstm): LSTM(100, 128, num_layers=25, batch_first=True, bidirectional=True)
  (sm_fc): Linear(in_features=356, out_features=100, bias=True)
  (fc): Linear(in_features=100, out_features=8, bias=True)
)
Learning rate: 0.001
Epochs: 25

dataset2012-2017-full-text
len(train)16399
len(dev)2342
len(test)4685
Model: RCNN
Max length: 400
batch_size: 20
Embeddings: glove-6B-100

dataset2012-2017-full-text
len(train)16399
len(dev)2342
len(test)4685
Model: RCNN
Max length: 400
batch_size: 20
Embeddings: glove-6B-100

dataset2012-2017-full-text
len(train)16399
len(dev)2342
len(test)4685
Model: RCNN
Max length: 200
batch_size: 20
Embeddings: glove-6B-100

dataset2012-2017-full-text
len(train)16399
len(dev)2342
len(test)4685
Model: RCNN
Max length: 200
batch_size: 20
Embeddings: glove-6B-100

dataset2012-2017-full-text
len(train)16399
len(dev)2342
len(test)4685
Model: RCNN
Max length: 200
batch_size: 20
Embeddings: glove-6B-100
Model: RCNN_Classifier(
  (embed): Embedding(365144, 100)
  (bi_lstm): LSTM(100, 128, num_layers=25, batch_first=True, bidirectional=True)
  (sm_fc): Linear(in_features=356, out_features=100, bias=True)
  (fc): Linear(in_features=100, out_features=8, bias=True)
)
Learning rate: 0.001
Epochs: 25
Epoch [1/25], Steps [100/20500], Loss: 1.7444

dataset2012-2017-full-text
len(train)16399
len(dev)2342
len(test)4685
Model: RCNN
Max length: 500
batch_size: 20
Embeddings: glove-6B-100
Model: RCNN_Classifier(
  (embed): Embedding(365144, 100)
  (bi_lstm): LSTM(100, 128, num_layers=25, batch_first=True, bidirectional=True)
  (sm_fc): Linear(in_features=356, out_features=100, bias=True)
  (fc): Linear(in_features=100, out_features=8, bias=True)
)
Learning rate: 0.001
Epochs: 25
Epoch [1/25], Steps [100/20500], Loss: 1.9087
Epoch [1/25], Steps [200/20500], Loss: 1.6936
Epoch [1/25], Steps [300/20500], Loss: 1.9401
Epoch [1/25], Steps [400/20500], Loss: 1.7349
Epoch [1/25], Steps [500/20500], Loss: 1.7384

dataset2012-2017-full-text
len(train)16399
len(dev)2342
len(test)4685
Model: RCNN
Max length: 300
batch_size: 20
Embeddings: glove-6B-100
Model: RCNN_Classifier(
  (embed): Embedding(365144, 100)
  (bi_lstm): LSTM(100, 128, num_layers=25, batch_first=True, bidirectional=True)
  (sm_fc): Linear(in_features=356, out_features=100, bias=True)
  (fc): Linear(in_features=100, out_features=8, bias=True)
)
Learning rate: 0.001
Epochs: 25

dataset2012-2017-full-text
len(train)16399
len(dev)2342
len(test)4685
Model: RCNN
Max length: 400
batch_size: 20
Embeddings: glove-6B-100
Model: RCNN_Classifier(
  (embed): Embedding(365144, 100)
  (bi_lstm): LSTM(100, 128, num_layers=25, batch_first=True, bidirectional=True)
  (sm_fc): Linear(in_features=356, out_features=100, bias=True)
  (fc): Linear(in_features=100, out_features=8, bias=True)
)
Learning rate: 0.001
Epochs: 25
Epoch [1/25], Steps [100/20500], Loss: 1.8748
Epoch [1/25], Steps [200/20500], Loss: 1.7076
Epoch [1/25], Steps [300/20500], Loss: 1.7626
Epoch [1/25], Steps [400/20500], Loss: 1.6813
Epoch [1/25], Steps [500/20500], Loss: 1.6807

dataset2012-2017-full-text
len(train)16399
len(dev)2342
len(test)4685
Model: RCNN
Max length: 300
batch_size: 20
Embeddings: glove-6B-100
Model: RCNN_Classifier(
  (embed): Embedding(365144, 100)
  (bi_lstm): LSTM(100, 128, num_layers=25, batch_first=True, bidirectional=True)
  (sm_fc): Linear(in_features=356, out_features=100, bias=True)
  (fc): Linear(in_features=100, out_features=8, bias=True)
)
Learning rate: 0.001
Epochs: 25
Epoch [1/25], Steps [100/20500], Loss: 2.0221
Epoch [1/25], Steps [200/20500], Loss: 1.8241
Epoch [1/25], Steps [300/20500], Loss: 1.7049
Epoch [1/25], Steps [400/20500], Loss: 1.6341
Epoch [1/25], Steps [500/20500], Loss: 1.6397

dataset2012-2017-full-text
len(train)16399
len(dev)2342
len(test)4685
Model: RCNN
Max length: 200
batch_size: 20
Embeddings: glove-6B-100
Model: RCNN_Classifier(
  (embed): Embedding(365144, 100)
  (bi_lstm): LSTM(100, 128, num_layers=25, batch_first=True, bidirectional=True)
  (sm_fc): Linear(in_features=356, out_features=100, bias=True)
  (fc): Linear(in_features=100, out_features=8, bias=True)
)
Learning rate: 0.001
Epochs: 25
Epoch [1/25], Steps [100/20500], Loss: 2.0279
Epoch [1/25], Steps [200/20500], Loss: 1.9712
Epoch [1/25], Steps [300/20500], Loss: 1.9379
Epoch [1/25], Steps [400/20500], Loss: 1.6781
Epoch [1/25], Steps [500/20500], Loss: 1.7189

dataset2012-2017-full-text
len(train)16399
len(dev)2342
len(test)4685
Model: RCNN
Max length: 10
batch_size: 20
Embeddings: glove-6B-100
Model: RCNN_Classifier(
  (embed): Embedding(365144, 100)
  (bi_lstm): LSTM(100, 128, num_layers=25, batch_first=True, bidirectional=True)
  (sm_fc): Linear(in_features=356, out_features=100, bias=True)
  (fc): Linear(in_features=100, out_features=8, bias=True)
)
Learning rate: 0.001
Epochs: 25
Epoch [1/25], Steps [100/20500], Loss: 1.7204
Epoch [1/25], Steps [200/20500], Loss: 1.7627
Epoch [1/25], Steps [300/20500], Loss: 1.6745
Epoch [1/25], Steps [400/20500], Loss: 1.4721
Epoch [1/25], Steps [500/20500], Loss: 1.4798
Dev: 
Evaluation - loss: 1.638023  acc: 64.0478%(1500/2342) 

Epoch [1/25], Steps [600/20500], Loss: 1.6386
…
